cifar_net.pth (torch, 89871 bytes, 8 tensors)

conv1.weight f4 [10, 1, 5, 5]
000000 fb 8e b5 3d c3 84 f5 3d 09 7b 20 be 1a 91 e7 3d
       0.08865162 0.11988213 -0.15671934 0.11306973
000010 3e 97 63 3e 69 66 2f be 71 ad 1c 3c 28 0b bc 3e
       0.22225663 -0.1712891 0.009562836 0.36727262
000020 b2 1d 03 3e ea 20 47 bc 84 e4 1a 3e 04 5a 58 3e
       0.12804297 -0.012153843 0.15126234 0.21128088
000030 cc 41 65 3e f7 df 3a be 5e 41 1b 3e 98 1e dc bb
       0.22388381 -0.18249498 0.15161654 -0.0067175142
000040 bb 6b 50 3e d1 c7 d9 3d 99 48 d9 bd 64 38 a0 3d
       0.20353596 0.10633815 -0.1060955 0.07823256
000050 33 41 a8 be 7f 8f 3d be be 67 42 bd 18 e2 61 3e
       -0.32862243 -0.1851177 -0.047462218 0.22058904
000060 7e d7 96 be 83 7c 15 be 3a ef 34 be ec 87 9d be
       -0.29461282 -0.14598279 -0.17669383 -0.30767763
000070 ca 89 6f be 0b 0c be be 80 49 2a 3e fe 3b ae bd
       -0.23392406 -0.37118563 0.166296 -0.08507536
000080 cc 70 9b bd c2 48 c6 be d0 dc ae be 3a 99 7e 3e
       -0.07589874 -0.38727385 -0.34152842 0.24863139
000090 2b 09 c1 3e 13 2a 9a 3e d9 e0 b8 3c fb 45 07 3e
       0.37702307 0.30110225 0.022568153 0.13210289
0000a0 4b 69 6a 3d 5a 96 b4 3d 89 ff ac 3e 50 03 d3 3e
       0.05722932 0.0881774 0.33788708 0.41213465
0000b0 14 ad dc 3e f2 1e ac be 19 36 b2 bd b5 ee 32 bd
       0.43100798 -0.3361736 -0.087017246 -0.04368468
0000c0 48 6a 6c 3e 57 35 8c 3d 4c 3a db be 92 fd 47 3b
       0.23087418 0.06846111 -0.42817914 0.003051613
0000d0 36 be 4f 3e 8c fd 95 3e 33 80 cd 3d bc 74 50 be
       0.20287403 0.29295003 0.10034218 -0.2035703
0000e0 5b a3 7b 3e 76 c6 b3 3e 7a a5 de 3d ca 54 ae be
       0.24574034 0.3511235 0.10871406 -0.34049064
0000f0 42 92 87 3d 1d fe d3 3e e1 b4 ae 3e b9 4e 66 be
       0.06619693 0.4140481 0.34122375 -0.22490968
000100 5f b4 a8 be d0 e4 e5 3d 3d ae ea 3e f3 8c 2f bd
       -0.32950112 0.11225283 0.45836058 -0.04285903
000110 aa 94 69 be 9b 5a df be fa a6 ba 3e 45 b9 28 3e
       -0.22810617 -0.43623814 0.36455518 0.16476925
000120 4d b2 2f 3d be d3 8e be 95 b4 f5 be 5f 15 ae be
       0.04289465 -0.2789592 -0.47989336 -0.3400068
000130 bc d7 40 be 65 c4 aa 3d 2c 34 a4 3d 66 f2 87 3e
       -0.18832296 0.083382405 0.080177635 0.26552123
000140 90 e1 a8 be ea e0 78 be 77 e7 96 3d 78 7a 79 bd
       -0.3298459 -0.24304548 0.07368367 -0.06090781
000150 29 74 8d 3e e7 df a4 be 00 94 a0 3c 4f c0 91 bd
       0.27627686 -0.32202074 0.019601822 -0.07116758
000160 33 37 e7 bb 09 7f 72 3e c3 03 41 be 47 9a 78 bd
       -0.007056141 0.23681273 -0.18849091 -0.060694005
000170 c4 81 86 3e 3b 8d 52 3e 74 84 06 be c1 e0 cd bd
       0.26270878 0.20561688 -0.13136464 -0.10052634
000180 b7 c0 ae 3e f7 ef e9 3d 3d 39 a3 bd b6 bf 7c be
       0.34131405 0.11422723 -0.07969902 -0.24682507
000190 d8 e1 e9 bd 05 97 4d 3d b2 85 d9 bc 45 96 14 be
       -0.114200294 0.05019285 -0.026553009 -0.14510448
0001a0 7d a0 a0 3b 8e 3f 0f be 83 ac 2d be 13 2c e3 bd
       0.004901944 -0.13989088 -0.16960339 -0.11092391
0001b0 23 44 33 be b9 77 02 be 18 0e 3c 3e 8f 12 00 3d
       -0.17506461 -0.12740983 0.18364751 0.0312677
0001c0 f0 1c 7d 3d c6 ce 3e be cf 47 06 be b6 87 a5 bd
       0.061795175 -0.18633565 -0.1311333 -0.080825254
0001d0 32 e4 d4 3c 7d 1d 34 be 5a c6 b0 bd 05 29 f5 bd
       0.025987718 -0.17589374 -0.086315826 -0.119707145
0001e0 72 ad 33 bc 69 ef a4 bd 9c 34 74 bc bb d7 0a be
       -0.010966646 -0.08053476 -0.014905121 -0.13558857
0001f0 9d 6e 0c be 68 99 9b 3c 5c 8e 88 bc 11 28 56 be
       -0.1371407 0.018994048 -0.016669445 -0.20913722
000200 a7 7a 2b 3e 89 2e 44 3d 0e 0d 78 3e 3f fd 04 bd
       0.16746007 0.047895942 0.2422373 -0.032468077
000210 d4 5a c6 be c3 bd a2 3d 96 3d 98 bc cf b1 ba 3d
       -0.3874117 0.079463504 -0.018584054 0.091159455
000220 1e 7e 41 be 23 c6 bf be f8 9b df bc 90 49 79 bd
       -0.18895766 -0.37455854 -0.027296051 -0.06086117
000230 08 89 af 3e b9 31 cd bc 4d 7d f3 3d 8b 77 23 be
       0.34284234 -0.025048124 0.118891336 -0.15963571
000240 24 d5 42 3c 80 b8 de 3d f8 c8 74 3e 2b a1 93 3e
       0.011891637 0.10875034 0.23904788 0.288339
000250 30 52 8d 3e 1c 5a 4b bd 3c 31 4c be 8f 95 bc be
       0.27601767 -0.049646482 -0.19940656 -0.36832854
000260 98 f1 39 be d8 d3 01 be 8a aa 6e 3e 1f 93 bb be
       -0.18158567 -0.12678468 0.23307243 -0.36635682
000270 d9 01 2c 3e 24 fe 93 3e 76 14 9a 3e 89 ce 47 bb
       0.1679758 0.2890483 0.30093735 -0.0030488095
000280 7a 1c e8 3e 8f 38 c0 3e 3a ec 6b 3d a6 53 51 be
       0.45334226 0.3754315 0.05759833 -0.20442066
000290 3b 9d 0a 3d 6f e1 28 3e b2 72 36 be a5 65 99 bd
       0.033841353 0.16492246 -0.1781719 -0.0749009
0002a0 5c 19 87 bd 57 3d 35 be 1b d5 4e be 4c c1 57 be
       -0.06596634 -0.1769918 -0.20198481 -0.2106983
0002b0 25 0f 2b bc 38 58 41 bd 29 9c cd bd d3 af 55 be
       -0.010440622 -0.047203273 -0.10039551 -0.20867853
0002c0 dc cd 18 be 08 a0 03 3e 43 21 8d 3e f7 40 21 be
       -0.14922279 0.12854016 0.2756444 -0.15747438
0002d0 96 3a fe bd be 8b 31 3e 8b b0 a7 3e fd 34 6a 3d
       -0.12413518 0.17338464 0.3275188 0.05717944
0002e0 42 f6 0e be de 6a 93 bd 25 b6 4c bc ed 47 37 3e
       -0.13961127 -0.07198118 -0.0124945985 0.17898531
0002f0 0a 85 e7 3d 3c 7a 3f be 66 28 1c be df 8f 21 be
       0.11304672 -0.18698972 -0.15249786 -0.15777539
000300 8b d9 82 3e d8 ea e5 3e 5f 65 01 3b bf d9 58 be
       0.25556597 0.44905734 0.001974426 -0.21176814
000310 dc 06 20 be 21 2f 0a be 26 89 75 3e 0a b5 91 3e
       -0.15627617 -0.13494541 0.23978099 0.28458434
000320 eb ba 80 be d9 ae 89 be 85 0c 0b 3e ca cb ab 3e
       -0.25142607 -0.2689121 0.13578995 0.33553916
000330 d0 94 99 3e 95 6f d6 bd e0 60 30 bf 8a 19 1c bf
       0.29996347 -0.10470501 -0.6889782 -0.6097647
000340 38 f7 37 be 3f c4 4b 3e a8 52 f9 3e 11 27 48 be
       -0.179654 0.1989908 0.48695874 -0.19546153
000350 9a 16 19 bf 6a cc dd be 52 a2 38 be 39 b4 19 3f
       -0.5980011 -0.43320018 -0.1803067 0.6004062
000360 2c bc a0 3e 27 1a 48 be 3a 1f 4d be af 0c 89 be
       0.31393564 -0.19541226 -0.20031443 -0.2676749
000370 a8 76 52 bb f9 56 fb 3e 24 9a bf 3d f0 1b 6f 3b
       -0.0032114182 0.49089792 0.09355572 0.0036485158
000380 93 70 79 be 09 2d dd 3d d3 46 0a 3e 8a 4f 11 3e
       -0.2435935 0.107996054 0.1350358 0.14190498
000390 67 1e 57 3e 36 88 9a 3e b4 06 9a 3d 94 94 04 3f
       0.21007691 0.30182046 0.0752081 0.5178921
0003a0 ff d9 fd 3e 48 1f 0f 3f 12 25 b5 3e 8b 74 96 bd
       0.4958038 0.55907106 0.35379845 -0.073464476
0003b0 42 a1 39 3d df 02 0e be 19 3c 93 be e4 c4 b9 be
       0.045319803 -0.13868283 -0.28756788 -0.36283028
0003c0 86 71 c2 be d5 2f f5 be 81 3c 11 bf 6a 37 0a bf
       -0.37977237 -0.47888055 -0.56732947 -0.53990805
0003d0 9b d7 c9 be 99 dd 0d bf b0 22 ed be 45 a9 2a be
       -0.39422306 -0.55416256 -0.46315527 -0.16666134
0003e0 31 e7 cc 3c 82 90 50 3e
       0.025012584 0.20367625

conv1.bias f4 [10]
000000 40 30 62 bd e2 71 37 be f2 ac ed be 2f a0 12 be
       -0.055221796 -0.17914537 -0.4642101 -0.14318918
000010 47 3a a2 bd ae 96 b0 be b5 d6 2b bd 09 58 ce be
       -0.07921272 -0.3448996 -0.041952807 -0.4030154
000020 50 36 db 3d f2 fb e0 bd
       0.10703719 -0.10985555

conv2.weight f4 [20, 10, 5, 5]
000000 7a f0 3f 3d 3e c5 9d bd b6 80 36 3d cf 81 a0 3c
       0.046860196 -0.077036366 0.044556342 0.019593148
000010 ae a7 8f b8 a7 87 f3 3d 3c 44 a2 3d e1 0f 4b 3d
       -6.850004e-05 0.11891108 0.07923171 0.04957569
000020 d2 4a d3 3c 00 7a 60 3d 18 47 d3 3d cf 61 00 3e
       0.025792513 0.05480385 0.103162944 0.12537311
000030 80 6a 30 3e d4 c8 8d 3e 92 8f 77 3e cf 50 6e be
       0.17228127 0.27692282 0.24175861 -0.23273014
000040 16 cf 89 be a3 ce 05 be 0b d7 07 3d 98 31 d7 bd
       -0.26915807 -0.13067107 0.033164065 -0.10507506
000050 94 6f 28 be 17 6c 8d be 6a e7 9b be 38 5c b8 be
       -0.16448814 -0.27621529 -0.30449992 -0.36007857
000060 4d fe bb be dc 74 87 bc 35 80 25 3c db df 81 3d
       -0.36717454 -0.016535215 0.010101368 0.06341525
000070 d4 af 29 3d d5 51 15 bd b8 be aa 3c da f9 63 3c
       0.04142745 -0.036454994 0.020842895 0.01391455
000080 a9 6d cd bd 8a 87 94 bd 9c 1d a4 bb a3 c4 3e bd
       -0.10030682 -0.072524145 -0.0050084125 -0.046574246
000090 23 e9 7d 3c a1 76 42 3d 89 64 a0 3d 64 f7 24 3c
       0.015497479 0.047476415 0.078316756 0.010068748
0000a0 79 a7 b2 bd 46 18 33 be 61 e3 2f be 7f 1b ad bd
       -0.08723349 -0.17489728 -0.17176582 -0.0845251
0000b0 f0 3e 1c be 48 09 8a 3e 73 dc 68 3e f0 81 42 3e
       -0.15258384 0.26960206 0.22740345 0.1899488
0000c0 94 1b b2 3d cc dd 2e 3c 4f 12 3e 3d 1e b6 cf 3c
       0.08696666 0.010672998 0.04640418 0.025355395
0000d0 5d c7 48 bd 8b a2 9b 3d cf 27 e9 3c 93 5a 3a be
       -0.049018253 0.07599362 0.028461365 -0.18198614
0000e0 95 53 84 3d 53 99 1d 3e cf 6a bb 3c 05 d7 1c 3e
       0.064612545 0.1539052 0.022878079 0.15316398
0000f0 b5 cb 87 be 49 84 3d be a1 73 e4 bd 9e e1 9f bd
       -0.26522604 -0.18507494 -0.11154867 -0.07806705
000100 2a a1 9f bd 3c 68 88 be d0 0d 9a be 4b c1 c5 be
       -0.077944115 -0.26642025 -0.30088663 -0.38624033
000110 ad 8b a7 be a0 b5 4b be 22 72 5c 3c 94 c6 99 bd
       -0.32723752 -0.19893503 0.013454946 -0.07508579
000120 f1 ac 00 be 43 ea 3f be 52 3d 8f bd c5 ce be bd
       -0.12565972 -0.18741708 -0.06994118 -0.09316782
000130 d8 f6 68 bd 1e 30 85 3d 09 0e fb 3c f9 d7 aa 3d
       -0.056876034 0.06503318 0.03064634 0.08341975
000140 36 8a 74 bd 76 f5 04 bd a9 00 cf bd a9 55 94 bd
       -0.05970212 -0.032460652 -0.10107548 -0.07242901
000150 73 29 ac bc 17 c7 c5 bd 6f 8b f1 3b fa 72 98 bd
       -0.021015858 -0.09657114 0.007371358 -0.07443805
000160 ca 0b d3 bc bf 3f db 3b c2 72 8f bd 65 e4 6c bb
       -0.025762457 0.0066909487 -0.0700431 -0.0036146876
000170 a1 e7 70 3d 0d 81 49 3d 45 35 0d be 83 25 7c bd
       0.05881465 0.049195338 -0.13789852 -0.06155921
000180 f3 e5 75 bb ed e7 87 bd 85 b0 c4 bd 62 02 8b ba
       -0.0037521094 -0.06636033 -0.09603981 -0.0010605569
000190 f7 73 bf bc a4 a0 10 bd 98 29 60 bd 5d 19 d2 3b
       -0.023370726 -0.03530945 -0.054727167 0.006411715
0001a0 8f b2 06 3d 9e fc 72 3c 96 6c 94 3c 02 5b 30 bd
       0.03288513 0.014830736 0.018118184 -0.04305554
0001b0 88 20 64 bd 69 62 e1 3b 57 2c 6f 3d 2d 40 18 3d
       -0.055695087 0.0068781865 0.058391895 0.037170578
0001c0 16 a0 11 bd 96 3d aa bb 9a 1c 27 bd 91 41 f8 bc
       -0.03555306 -0.00519533 -0.04079876 -0.030304702
0001d0 62 45 41 3c ce 94 0f 3d 9c fb 58 3d 74 1a 6a bd
       0.011796327 0.03505402 0.05297433 -0.057154134
0001e0 a5 62 2e 3d b0 ef 38 bd 0d 01 bf 3c 6f 0c 5c 3d
       0.042574544 -0.04515046 0.02331593 0.053722795
0001f0 6a 4a 7d 3a 51 8e 54 3d 5d b5 0b bd fc f5 1d bd
       0.00096622726 0.051893536 -0.03410851 -0.038564667
000200 f0 7a ca 3c 19 4b 89 bd ca d0 be 3c be 8a 20 3c
       0.024716824 -0.06703777 0.023292918 0.009798704
000210 03 50 11 3d a6 cc 93 3c 39 1c 0c bd 36 3a 24 bd
       0.035476696 0.01804192 -0.034206603 -0.040094577
000220 f4 77 64 bd 7b e7 96 3c ad a1 5a 3d 8a 81 ab bc
       -0.05577846 0.018420925 0.053376842 -0.020935792
000230 3b 35 c4 bc a9 fa 92 3d 4e ed e9 3c cd 28 b8 bb
       -0.023951164 0.07176716 0.028555539 -0.005620098
000240 fd 5c 22 bd 4a 98 7c bd 28 b1 a2 bd 55 58 8a bc
       -0.03963946 -0.06166867 -0.07943946 -0.016887823
000250 4c e0 be bc ba d3 e9 3c ae f8 09 bc 94 95 5e 3b
       -0.023300312 0.028543342 -0.008421106 0.0033963667
000260 3a a9 14 3e 20 ca 2a 3e d7 c9 52 3e a2 43 33 bd
       0.1451768 0.16678667 0.20584808 -0.04376567
000270 5f 8a 59 3d b2 41 9f 3d a2 9b 8f 3d b1 c2 1f 3e
       0.053110477 0.07776202 0.070121065 0.15601613
000280 11 58 12 bd 90 4f 74 bb 5e 23 0d bd 7d 43 e1 3d
       -0.035728518 -0.0037278868 -0.034457557 0.109992005
000290 83 bc 25 3e e9 00 2b bd 59 05 ca bd 74 d2 0d be
       0.16185193 -0.041748915 -0.09864301 -0.13849813
0002a0 2b d9 26 bd eb a4 e2 3c b7 0f b6 3c 53 15 3e bd
       -0.04073445 0.02766653 0.02222429 -0.046407055
0002b0 76 c8 be bd 90 de 62 bd df af 0e be 43 f7 4e 3c
       -0.09315579 -0.055388033 -0.13934277 0.012632194
0002c0 09 4b c1 bd db 1a c1 bd 78 13 80 bd 11 b8 c9 bd
       -0.0943814 -0.094289504 -0.06253713 -0.09849561
0002d0 24 ac 20 3c 39 6c c3 3d a6 5b 81 3d cd 00 b3 3d
       0.0098066665 0.09542126 0.06316309 0.08740387
0002e0 65 03 d2 3c f5 e7 67 bd 2a d3 00 3d aa c4 0c 3e
       0.025636384 -0.056617696 0.03145138 0.13746896
0002f0 c6 51 0e 3e f0 5c b2 bd cd b1 41 be 2c 2a 96 be
       0.13898382 -0.08709133 -0.18915482 -0.2932905
000300 20 4b 7d be 7b 98 f2 bd 85 dc 34 be f7 e8 30 bc
       -0.24735689 -0.118454896 -0.17662247 -0.010797731
000310 5e d6 71 3b 64 a9 f2 3c 63 10 ae bd 73 18 5b be
       0.0036901454 0.029621787 -0.08499219 -0.21396045
000320 e5 71 3d bd 02 cf e3 3c 53 58 14 bd f0 ef 25 be
       -0.046251196 0.02780867 -0.036217045 -0.1620481
000330 98 9c 34 be f8 2a 81 bc 5f 5f 33 3d 2e f7 bb bd
       -0.17637861 -0.01576756 0.043792125 -0.09178005
000340 3b da 8d bd 2b d4 e0 bd 77 43 94 3d c4 92 14 3e
       -0.0692639 -0.10977968 0.072394304 0.14509112
000350 cb 05 03 3e 3c a4 fd 3c 75 57 ad bc 19 8c c0 3d
       0.12795179 0.030962102 -0.021159867 0.094017215
000360 30 7a bc 3d be bb a3 3d 78 85 14 3d b0 fe d9 bb
       0.09202993 0.07994793 0.0362601 -0.0066526756
000370 5d 33 d0 3d 7e b4 ed 3d 42 ec 1b 3e ff 42 f7 3d
       0.10166047 0.11606692 0.15226844 0.12073325
000380 34 99 05 bd 07 d6 4f bb 2d d9 b4 3c 3b 8c 09 bd
       -0.03261681 -0.0031713264 0.022076214 -0.033581
000390 22 62 3c 3d e5 8f 2d 3d 4b e2 fc 3c 2d db c9 bd
       0.045992024 0.042373557 0.030869624 -0.098562576
0003a0 9b 79 eb bd 8a 55 b4 bd 80 1c ba bb 0e d8 69 3c
       -0.11497804 -0.08805378 -0.005679667 0.014272703
0003b0 7e 62 75 3c f0 f6 10 bd 7b f8 f1 3c c8 b8 47 3e
       0.014977096 -0.035391748 0.02953743 0.19504082
0003c0 9f d4 25 3e 02 d8 19 3e b5 39 44 3e 6c b5 98 3e
       0.1619439 0.15023807 0.19162638 0.29825914
0003d0 1a b4 69 3e 0f 50 88 3c ee ee dc bd 33 57 e8 bc
       0.2282261 0.016639737 -0.1078776 -0.028361892
0003e0 51 0b f0 bc 64 97 5f be d8 36 27 be 8f 67 98 be
       -0.029302271 -0.21835095 -0.16329515 -0.2976651
0003f0 42 df 3b be da ce 50 be 77 d7 5e be 77 6e f4 3d
       -0.18346885 -0.20391408 -0.21761881 0.11935132

conv2.bias f4 [20]
000000 2d 26 39 3e bb 5f 04 be ed 68 5e bc 0a ca 84 3c
       0.18080969 -0.12927143 -0.013574821 0.016209621
000010 ba b3 28 bc 0f 8d 2d 3c ba e8 8c 3e 95 20 ad bd
       -0.010296756 0.010592713 0.27521306 -0.0845348
000020 fc 91 19 bd 1f 86 3a be 85 1d 79 bd 83 a7 7a 3d
       -0.037492737 -0.18215226 -0.060819168 0.061194908
000030 3f 5a 0f bd 00 fe 5f bc be fb 37 3e 4a ed 7c bb
       -0.034998175 -0.013671398 0.17967126 -0.0038593584
000040 d1 eb 95 bc 1c c7 30 bc fc d3 64 bd 8f bc 8d be
       -0.018300923 -0.010789659 -0.055866227 -0.2768292

fc1.weight f4 [50, 320]
000000 85 b9 c2 3a 72 0d 4f 3d d3 a4 3e 3d c6 d1 60 3d
       0.0014856315 0.05054993 0.046543907 0.054887556
000010 98 f6 32 be a8 20 3a be b5 f6 c9 bd eb eb 51 3d
       -0.1747688 -0.1817652 -0.09861509 0.05125038
000020 b3 f2 01 be c7 1d 25 bd 70 19 53 bd 12 b2 96 bb
       -0.12690239 -0.0403116 -0.05153793 -0.0045988644
000030 b7 3b 12 3c ab f1 0e 3e 1d 0b 1d 3e 09 fc 45 3e
       0.00892537 0.13959377 0.1533627 0.19334425
000040 62 e1 0d bd 67 72 4c bd 02 52 53 be bd c4 84 be
       -0.03463877 -0.04991379 -0.20636752 -0.2593135
000050 18 ea 6a bb f8 ed 82 3b a4 d7 02 3d 15 4c 1a 3e
       -0.0035845097 0.0039956532 0.031943932 0.15068085
000060 ba 01 26 bd 92 3b 03 3c ce de fa 3c 4b 7f 36 3e
       -0.04052899 0.008009808 0.03062382 0.17821996
000070 ea 90 ad bd 34 9a b1 bd 16 a7 82 3d 2c b9 b4 3d
       -0.08474906 -0.0867199 0.06379525 0.08824381
000080 e0 d4 40 bd cc 35 7f 3d f8 23 f0 3c f2 2c 42 bd
       -0.047078013 0.062307164 0.029314026 -0.047406144
000090 76 35 78 bd 9f e4 9d 3c dd 3b 98 bb 96 df ba bb
       -0.06059786 0.019274054 -0.004645808 -0.005702923
0000a0 92 8f 0b 3e 89 57 21 3d bf 1f 48 bd e7 16 8d 3d
       0.13628986 0.03939012 -0.0488584 0.06889134
0000b0 f4 1d 67 bc 3e fc 01 3d a1 34 0d 3c 3b 85 68 bd
       -0.0141062625 0.031734698 0.008618505 -0.056767683
0000c0 45 db 83 3d 63 12 2b 3c e6 f6 3e 3d 60 65 f8 3c
       0.06438307 0.010441395 0.04662218 0.030321777
0000d0 08 a0 01 3e 49 78 46 3c b8 0b 66 bc 22 cd 54 bd
       0.12658703 0.012113639 -0.01404088 -0.051953442
0000e0 d9 8b 1f bc bc 0b 16 3c 7b b1 17 bd 3c fb bd bd
       -0.009737932 0.009158071 -0.037034493 -0.09276435
0000f0 d0 f5 01 be d5 74 a9 bd 19 93 36 bd 2e 9f c4 3d
       -0.12691426 -0.08274237 -0.044573877 0.096006736
000100 74 de 5d 3c da dd e3 3d de 0a 0a 3e cc b6 04 bd
       0.0135418065 0.11126299 0.13480708 -0.03240089
000110 76 be 4c 3d 47 ce b4 3c 02 a9 9a 3d 27 9a 26 3c
       0.049986325 0.022071017 0.07551767 0.010168589
000120 a7 99 2d bd 38 5a d1 39 db 4b 15 3e f8 98 5f 3d
       -0.042382862 0.00039930805 0.14579718 0.05458924
000130 57 b7 36 b9 8f 5e 12 bc cb eb d6 bc 3f 58 e0 bd
       -0.00017425172 -0.008933677 -0.026235482 -0.109543316
000140 73 47 8e 3d 76 b2 07 3e 9a 8d 01 3e 7a df 00 3d
       0.069472216 0.13251671 0.12651673 0.031463124
000150 b3 f8 58 bd b5 f8 16 bc 7f ca 72 bd 15 2a 26 be
       -0.052971553 -0.00921457 -0.059275147 -0.1622699
000160 af c5 a5 bd 49 79 af bc cc b8 f1 3d 22 fe 9e 3c
       -0.08094346 -0.021420138 0.11802825 0.01940829
000170 f8 5f d6 3c 14 a0 40 3e 68 5a 3c 3e c0 71 07 3d
       0.026168808 0.18811065 0.18393862 0.033067465
000180 68 9d 88 bd 36 3d 64 3c b9 f7 05 bd 8a 07 1c bd
       -0.06670648 0.013930609 -0.03270695 -0.038093127
000190 69 44 55 bc 69 6c d2 3d 67 ce f4 bd f5 34 38 3d
       -0.0130167985 0.10274584 -0.119534306 0.04497238
0001a0 b8 bd 97 3d 62 29 85 3d 72 ff 9d bd 6d 2a 4f bc
       0.07409233 0.06502034 -0.07714738 -0.012644392
0001b0 1e 70 63 3c 09 9c ea bc 85 f4 61 bd 4e c7 63 bd
       0.013881711 -0.028638856 -0.055164833 -0.055609994
0001c0 d0 16 b2 bd 56 f3 0d be ec ce e0 bb 91 82 21 3d
       -0.086957574 -0.13862357 -0.0068606045 0.03943116
0001d0 26 1c 92 bd 62 d7 2e 3d 3b 7a 11 3e ab 5f 3f 3d
       -0.07134275 0.042685874 0.14206783 0.046722095
0001e0 c3 4c a0 bd 07 58 80 3d 66 1b 3f 3d b1 8f 5f 3d
       -0.07827141 0.0626679 0.04665699 0.054580394
0001f0 38 9a 94 bd 0d 26 82 bd cd 4c af bb 0c f7 ab 3c
       -0.072559774 -0.06354914 -0.0053497315 0.020991825
000200 c6 44 22 bd 87 16 ef 3c 39 1b a1 bc 97 10 b0 bd
       -0.03961637 0.029185547 -0.019666301 -0.08596914
000210 9f 60 b0 bd 87 fd ca bd 21 24 b3 bd 1d 6d 35 bd
       -0.08612179 -0.09911638 -0.087471254 -0.04429351
000220 f4 9a 15 bd a1 2d 37 be de 85 05 be 41 29 0b 3c
       -0.036524728 -0.178885 -0.13039348 0.008493722
000230 97 84 67 bd 29 1a d2 3d 72 95 06 3e 3d 82 36 3e
       -0.056522932 0.10258896 0.13142946 0.1782312
000240 d4 5c 58 bd 8a 97 6b bd 57 ca 86 3d d6 05 52 be
       -0.052822903 -0.057517566 0.06581562 -0.20510039
000250 90 5e 9a bd 68 df c8 bd 34 49 19 3b 96 39 9b bd
       -0.075375676 -0.09808236 0.002338958 -0.07579343
000260 88 fc 43 bd 0b 08 6d bd 9f a9 16 3e c6 09 b2 bd
       -0.047848254 -0.057869 0.14713143 -0.086932704
000270 51 e7 92 3d 0c d0 99 3d 41 76 e3 3c e2 e2 6d bc
       0.07173026 0.07510385 0.027766349 -0.014519425
000280 7e 96 e2 3c 8a d4 87 bc 5e c6 aa bc fb eb ab bd
       0.02765965 -0.016580839 -0.020846542 -0.08394619
000290 74 64 5f 3d 0f 02 d8 bc cd cd 8c bc ec 71 83 bd
       0.05453916 -0.02636817 -0.017187977 -0.06418213
0002a0 a7 c7 41 3d f5 7e 40 3d bc 17 72 bd 3f d8 5b 3d
       0.047309544 0.046996076 -0.059104666 0.053673025
0002b0 e6 42 f0 bc 5f 7e 8e 3c e5 7e cc 3d 7d 72 08 bd
       -0.029328775 0.017394243 0.09985141 -0.03331231
0002c0 64 f5 3e 3c c1 48 83 3d 05 38 3b 3e 86 5f 8f bd
       0.011655185 0.06410361 0.18283089 -0.070006415
0002d0 d4 8d 27 bd 84 d2 7c bd b4 34 1b 3e 86 92 88 bd
       -0.040906742 -0.0617242 0.15156823 -0.06668572
0002e0 96 e6 0a 3d 9f e2 f5 3c 4c 5e a2 bd 5e bf e7 bc
       0.03391131 0.030015288 -0.07928142 -0.028289493
0002f0 03 13 2a 3d d4 49 7d 3c 4f 05 5b bd 7d 14 40 bc
       0.041522037 0.0154594965 -0.05347186 -0.011723635
000300 56 1a c7 3c 72 85 53 3c 53 2f 88 bc 41 87 5a bd
       0.02430455 0.012910234 -0.016624128 -0.053351644
000310 13 07 b7 bb f9 d0 bd 3c ac 12 85 bc d1 d2 58 3d
       -0.00558556 0.023170935 -0.016244255 0.052935425
000320 10 96 1e 3c f0 70 f2 39 65 24 f6 3c 01 a4 ff 3c
       0.009679332 0.00046241982 0.030046651 0.031206133
000330 10 87 30 bd f2 57 55 3c 68 75 57 bd b0 a3 91 bc
       -0.043097556 0.013021456 -0.0526022 -0.017778248
000340 f6 e8 a4 bb 9a 0d 65 3d 83 62 ef bc c4 d7 0a 3b
       -0.005032654 0.055921175 -0.029221779 0.0021185735
000350 13 fe 82 bd a8 7b 01 3d e1 9e 06 3d e6 55 5d bd
       -0.06396117 0.03161207 0.032866362 -0.054036997
000360 d4 16 c9 3a 7a c3 9e 3d 3d 8b 84 3d ec c1 d8 bd
       0.0015341886 0.07752128 0.0647187 -0.10583863
000370 27 ef 64 bc 27 20 84 3d f4 e1 ca 3c a3 e9 f6 bc
       -0.013973034 0.06451445 0.024765946 -0.030140704
000380 fc 6b 4a 3d e3 46 21 3e e9 cc 64 3e c1 aa 0a 3e
       0.04941939 0.15749697 0.22343792 0.135417
000390 9f fe f1 3d 72 bf 40 bd 95 3f 23 3d 41 0d 85 bd
       0.11816143 -0.047057576 0.03985556 -0.064966686
0003a0 9c 44 8a bc 34 50 d8 3c c8 ac c0 3d 16 d0 80 bc
       -0.016878419 0.026405431 0.094079554 -0.015724223
0003b0 f0 73 3c bd 15 af 49 3d b1 80 99 3c a8 9e 56 bd
       -0.046009004 0.049239237 0.018738123 -0.0523974
0003c0 59 b6 21 3d ac 30 c0 3c cb da 97 bc 4a bb 6c 3a
       0.03948054 0.023460709 -0.018536946 0.0009030594
0003d0 cb bc 0e 3d 19 b5 a7 3d de c9 b8 bc dd 55 80 3d
       0.034848016 0.081888385 -0.022557195 0.06266377
0003e0 ba 9f 1d be 9c 4a 0a be 75 63 04 bd fb e8 ec bd
       -0.15392962 -0.13505024 -0.032321412 -0.11567875
0003f0 00 cf c9 bd 4a 6e 2e 3d 39 1e 00 3e 2a 5e 3e 3e
       -0.09853935 0.04258565 0.12511529 0.18590608

fc1.bias f4 [50]
000000 80 c0 65 b8 82 b9 2e bd 83 a2 b6 3d 61 dc 3b bd
       -5.4777134e-05 -0.042657383 0.089177154 -0.045864467
000010 fc 2d b2 3c 17 de 9e 3c ff b9 07 3d d9 95 a8 bc
       0.021750443 0.01939301 0.033136364 -0.020579265
000020 d1 d5 16 3d e0 ec e5 3d fb 69 d4 3d 4e c5 9d bd
       0.036825005 0.11226821 0.10371777 -0.077036485
000030 de 45 ed bb 97 59 9f 3c 55 dc c0 ba 34 62 34 bb
       -0.007240995 0.0194519 -0.0014714102 -0.0027524354
000040 5e 9c 44 bd f1 53 a7 3c a6 21 94 3c b9 65 29 bc
       -0.048000686 0.020425769 0.018082451 -0.010339194
000050 d4 84 2a 3d 14 d7 10 3d 28 96 94 3c 2a 66 dd 3b
       0.04163058 0.035361364 0.018138006 0.0067565637
000060 5a 3d 32 bd 8c 29 51 bd d7 4e 54 3d 76 39 1b bd
       -0.04351554 -0.051065013 0.051833 -0.037896596
000070 08 41 2f 3d cd 48 90 3c 57 1c 84 bc 92 dd a4 bc
       0.042786628 0.01761284 -0.016126795 -0.020125184
000080 04 9d c9 3c b8 66 ee 3c 5e a3 5e 3d 60 05 83 bc
       0.024611004 0.029101714 0.054355018 -0.015993774
000090 ea 45 31 bd 24 18 2e bc f6 fb 2f 3c e1 70 a9 bc
       -0.043279566 -0.010625873 0.0107412245 -0.020683708
0000a0 0f 09 7a 3d 44 13 6c 3d 86 3f 58 bc 49 37 cf 3d
       0.061043795 0.05763556 -0.013198739 0.10117967
0000b0 58 51 06 3e 5d 9e 70 bd a5 ae 07 3d b9 a1 8d bc
       0.13116968 -0.058744777 0.03312554 -0.01728903
0000c0 f8 35 34 3c dc 77 62 bd
       0.010999195 -0.055290088

fc2.weight f4 [10, 50]
000000 fe d2 ad bd 72 90 50 3e 15 ec a6 3d 21 1b f1 bb
       -0.08487509 0.20367602 0.08150498 -0.0073579703
000010 d1 d4 49 3e 41 fe 4b 3e 29 4c 96 bd 5e 00 0e 3e
       0.1971009 0.19921209 -0.07338745 0.13867328
000020 80 da 8e bd 7b a6 13 bd d6 84 98 bc 44 3d fe 3c
       -0.06975269 -0.03604744 -0.018618029 0.031035073
000030 fb 19 23 be 93 c8 2d be 1c 0c 68 bc 77 d9 9e 3e
       -0.1592788 -0.16971044 -0.014163043 0.31025288
000040 8c 46 06 3d e6 3c 4f be 38 21 4e be 0a 66 1e 3d
       0.032782122 -0.20238075 -0.2012986 0.03867153
000050 33 33 5a bd aa 8b ad 3e a2 c1 db be 22 3c c9 bd
       -0.053271484 0.33895618 -0.42921168 -0.098259225
000060 5f ed 36 be 99 3b 89 bd ec 11 a0 be 5a fa 84 bd
       -0.17863987 -0.067008205 -0.31263673 -0.06493063
000070 2b 2c 0f be 47 81 30 be 09 5a 6f 3e d9 7d 68 bd
       -0.13981692 -0.17236815 0.2337419 -0.056760643
000080 03 8c 1a be e4 07 e0 be ed 51 a5 3d 27 8b c1 3e
       -0.15092473 -0.4375602 0.08072267 0.37801477
000090 4a 57 85 be fa 36 89 3e 21 b8 10 bc a6 a4 18 3e
       -0.2604316 0.26799756 -0.008832962 0.14906558
0000a0 f8 e1 a7 be 05 8b 2d be bc c9 53 3d 35 0e 0b 3f
       -0.32789588 -0.16947563 0.05170606 0.54318553
0000b0 0c 57 38 be 7d 27 6c 3d 74 85 a4 3e 7d de 38 3e
       -0.18001956 0.057654846 0.32133067 0.18053623
0000c0 87 c1 1a be 9f 98 0b 3f 60 b0 82 3e 17 cf cf 3e
       -0.15112887 0.54529756 0.25525188 0.40587685
0000d0 f5 d9 63 bb 38 fa a8 3e 10 db 1c be b7 21 85 3d
       -0.0034767364 0.33003402 -0.1531794 0.06500571
0000e0 f7 18 02 be 93 bc 2d bb d6 50 1f 3e 79 d5 1e 3f
       -0.12704836 -0.0026510104 0.1555818 0.62044483
0000f0 34 53 0e bd e9 56 5e bd ef f3 99 3e ff 51 33 be
       -0.034747317 -0.054282103 0.3006892 -0.17511748
000100 b5 00 8e bd 21 4d 15 3e e8 93 8f bd 17 a4 85 be
       -0.069337286 0.14580204 -0.07010633 -0.26101753
000110 14 31 69 be e4 cf 02 be 05 6d a3 be 4c 23 e4 3c
       -0.22772628 -0.12774616 -0.31919113 0.027848862
000120 72 de 0f 3e 5b 6a 3c be a7 49 e9 bd 7f 77 5d 3a
       0.140497 -0.18399946 -0.11391001 0.0008448287
000130 11 40 71 be 27 67 e8 3d fe 56 2f 3d 57 61 33 be
       -0.23559596 0.113478 0.04280757 -0.17517601
000140 2e 04 74 3d ad af 90 bd 8d b8 c6 3d 86 11 50 3e
       0.0595743 -0.070647575 0.09703169 0.20319185
000150 3d af 03 3e 4c e7 28 be 12 64 27 be 4d d3 94 be
       0.12859817 -0.16494483 -0.16346768 -0.2906746
000160 bb f3 8b 3d a3 f7 a5 3d 46 33 e7 bd 3d 89 6d bd
       0.06833597 0.081038736 -0.112890765 -0.05799221
000170 51 0d 91 bd 34 1d 9a 3e b0 0a 1d 3e 9a bd c1 3e
       -0.07082618 0.30100405 0.15336108 0.37839967
000180 a8 c0 cf be 83 e4 21 3e 9b 15 ce 3e f4 cb bc be
       -0.40576673 0.15809827 0.4025086 -0.36874354
000190 c9 d3 44 3e fd cf 9d be 77 eb a1 3e 65 d5 79 be
       0.19221415 -0.30822745 0.31624958 -0.2439781
0001a0 b2 e7 92 be bb 15 45 be 5d 97 43 3e 91 ef 2b 3e
       -0.28692394 -0.19246571 0.1910071 0.16790606
0001b0 15 67 39 be ed e9 dd be 4f 6f 85 3e c6 af 74 be
       -0.18105729 -0.43342534 0.26061484 -0.23895177
0001c0 b7 95 58 be c0 2b 8b be 9a 5e 0e be 91 61 a8 be
       -0.21150862 -0.27181816 -0.13903275 -0.32886937
0001d0 63 f5 69 bd 88 ca 52 3d ed b4 d8 3e 77 bd ec 3d
       -0.057118785 0.05146268 0.42325535 0.11559575
0001e0 4c 58 f6 be f5 fb df bd 2e 07 2b be c8 b8 d4 be
       -0.4811424 -0.10936729 -0.16701958 -0.41547227
0001f0 e8 57 b6 3d 66 6a 78 bd 79 bb b5 be e3 8c b4 3d
       0.089034855 -0.060648344 -0.35494593 0.088159345
000200 cd 94 9e bd f0 d3 8d 3d af d9 85 bd e1 8c e5 bc
       -0.07743225 0.069251895 -0.065356605 -0.028021278
000210 dc 54 b4 be 58 19 4a 3e 97 18 1d 3e 67 43 4c 3e
       -0.35220993 0.1973623 0.15341412 0.19947587
000220 23 5f b7 bd 60 3b e5 3e 92 ca ee bd be c8 16 be
       -0.08953693 0.44771862 -0.11659731 -0.14725015
000230 68 31 87 3e f8 03 59 bd 6b 68 e6 bc 3d bb 96 3e
       0.2640488 -0.0529823 -0.028125962 0.29439726
000240 ba 84 51 3e 38 5a 39 3d de b1 39 be d4 bc 69 3e
       0.20460787 0.045252055 -0.18134257 0.22825938
000250 6b d0 0d 3f af bf 4b 3e c9 eb 33 be c3 4d 4b bd
       0.55396146 0.1989734 -0.17570414 -0.049634706
000260 2e d8 d6 3e 7f 27 fd bd f2 b7 6a 3d 1a 46 fd 3c
       0.41961807 -0.12361049 0.05730433 0.030917216
000270 34 91 80 3e 30 a8 ae bd a6 5c e9 bd 45 29 e3 be
       0.2511078 -0.08528173 -0.113946244 -0.44367424
000280 e2 8a f1 bd 39 34 bb bc cb d2 5b be 58 ba 16 3f
       -0.11794068 -0.02285205 -0.2146713 0.5887809
000290 37 ac 39 be 93 7f 1f 3e 8f 7d a3 bc 81 a8 12 3f
       -0.18132101 0.1557601 -0.019957332 0.57288367
0002a0 b8 17 47 3d d6 5e fe 3d 44 c9 bc be c5 3e 0f 3e
       0.048606604 0.12420432 -0.36872303 0.13988788
0002b0 a0 25 70 be 3d c5 f0 bd 47 79 db 3e cd 4c 43 3b
       -0.23451853 -0.1175637 0.42865965 0.0029800416
0002c0 5d a0 a8 3e 99 2e 8c 3e 7f 8b 0b bd 44 91 b6 3c
       0.32934847 0.273793 -0.03406858 0.022286065
0002d0 74 2a 4f be ef 3b 89 3d 1c d1 0f 3e a7 92 79 3e
       -0.20231038 0.067008846 0.14044613 0.2437235
0002e0 af 15 b2 be cc 4e 46 3e 1b 50 0c 3d 4d ab 3b be
       -0.34782168 0.19365996 0.034256082 -0.18327065
0002f0 e2 99 91 3d f5 d4 d9 3d d7 5b 3e be ca 33 d0 bd
       0.07109429 0.106363215 -0.18589722 -0.10166128
000300 80 95 31 3e ac ca 85 be b5 e2 11 3e 2d a1 14 be
       0.17342186 -0.2613119 0.14246638 -0.14514609
000310 1c 7c 47 be 7e fb 07 3d d7 84 14 3d b0 c4 58 bd
       -0.19480938 0.033198826 0.0362595 -0.05292195
000320 a4 87 93 bd da 56 cb bd 8b 2b 88 be 7b 15 66 be
       -0.07203606 -0.09928675 -0.2659572 -0.22469132
000330 d7 db f1 bd b7 7e e1 3c 97 d8 1c 3e e2 8a 2c be
       -0.11809509 0.027526243 0.15316997 -0.16849855
000340 02 68 ba 3e 22 3d 38 3e 02 09 28 3e e4 32 9e 3d
       0.36407477 0.1799207 0.16409686 0.0772455
000350 39 f1 1c 3f d8 4f 33 be 95 b6 49 be 4e e0 10 be
       0.61305577 -0.17510927 -0.19698556 -0.14148065
000360 d8 5b 88 3d 63 fe a9 be 08 42 32 3e e9 49 dd bd
       0.06658143 -0.33201894 0.17408001 -0.10805113
000370 c3 c1 88 ba 4b 68 b7 3d 13 8f 91 3e f7 22 65 3e
       -0.0010433722 0.08955439 0.2842947 0.2237662
000380 32 b6 bb bd d4 ea 03 be d1 6a ba 3d cd 1c 21 be
       -0.091656104 -0.12882549 0.09102405 -0.15733643
000390 fa fa e6 3d c2 4c b7 bd bf bd 8b bd 19 c7 a5 3e
       0.11278339 -0.08950187 -0.068233006 0.32378462
0003a0 b2 7b 95 bc a8 2e 40 bd c1 8b 18 3f 0b 1d 9b be
       -0.01824746 -0.046919495 0.5958825 -0.30295596
0003b0 b9 2e bb 3e 02 3c 39 be 43 40 23 3e 90 14 80 be
       0.36559084 -0.18089297 0.15942483 -0.25015688
0003c0 d6 c3 6a bd 78 04 a2 3e 12 8b bf be 38 c7 a6 be
       -0.05731567 0.31644034 -0.3741079 -0.32573867
0003d0 fa 5a 0f bd 1f 9a 99 bd 69 87 83 3e 0b f4 9c 3c
       -0.03499887 -0.075000994 0.25689247 0.019159338
0003e0 6e 10 bc bd 18 82 57 be d3 2b b6 3c 63 27 b3 3e
       -0.09182821 -0.2104572 0.022237694 0.34990987
0003f0 3d 25 d4 3d 02 ac 17 3e a0 ec ae 3e e7 69 5c be
       0.10358665 0.1481171 0.34164906 -0.21524774

fc2.bias f4 [10]
000000 b6 aa 32 3d df c1 25 bc 9a 98 f0 bd 68 26 94 bc
       0.043619834 -0.010117023 -0.117478564 -0.01808472
000010 07 d0 ae 3c ff 3c 87 3c 5e fe 0f 3d ec cf 1f 3c
       0.02133943 0.016508577 0.035154693 0.009754162
000020 0d 7e 5b 3e 22 22 37 be
       0.21434803 -0.17884114
