MNIST.pth (torch, 89871 bytes, 8 tensors)

conv1.weight f4 [10, 1, 5, 5]
000000 ca 9f 45 3d df 28 f7 3d ca 8a 2d 3c b6 74 70 3e
       0.04824809 0.120683424 0.010592172 0.23482022
000010 bf 97 a4 3e 52 be ac 3c d6 33 b6 3e 86 17 71 3e
       0.32147023 0.021086846 0.35586423 0.2354413
000020 63 7c a7 3e d0 88 75 3e 8c f1 4f 3e b1 f3 75 3d
       0.32712087 0.23977971 0.20306987 0.060046855
000030 75 c5 4d 3e 91 3d 98 3d 92 4b 5a 3b 2d 6b aa bc
       0.20094855 0.07433618 0.0033309204 -0.020803059
000040 28 b8 4d be 91 09 34 be e6 95 49 be e7 4c cc 3d
       -0.20089781 -0.17581774 -0.19686088 0.099756055
000050 c9 ed a4 be 07 a4 8e be 91 34 85 be b1 e4 92 be
       -0.32212666 -0.27859518 -0.26016667 -0.28690103
000060 37 f5 98 bd 49 f1 62 be 90 06 1d 3e 4c c5 26 be
       -0.07468646 -0.22162355 0.15334535 -0.162862
000070 12 89 72 3e ae c7 20 3e 8c 31 9a bd f6 ac 04 3e
       0.236851 0.15701172 -0.075289816 0.12956604
000080 58 c2 be 3d 84 d3 9c 3e a0 4a 3b 3e d9 4c 04 bd
       0.09314412 0.30630124 0.18290186 -0.03229985
000090 04 ff c5 3d 56 32 0c 3d 08 67 7f 3e 1c 4c b5 3e
       0.09667781 0.03422769 0.24941647 0.3540963
0000a0 c2 58 11 3e b8 80 8e bd 41 86 21 3e d1 fc 19 3e
       0.14194015 -0.06958145 0.1577387 0.15037848
0000b0 db 04 7e 3e 9a a9 25 be e9 88 65 be 66 60 85 bd
       0.2480654 -0.16177979 -0.22415508 -0.06512527
0000c0 3f c7 a8 bd c8 77 91 3e d3 a6 f0 3d 1d e2 1e 3e
       -0.08241128 0.28411698 0.11750569 0.15515943
0000d0 98 96 09 3e b0 b6 70 3d e6 d0 61 3e f7 e1 fa bd
       0.13436353 0.058767974 0.22052345 -0.122501306
0000e0 f6 e1 30 3d 16 79 ed bd 67 63 8d 3d 15 20 2a bd
       0.043184243 -0.11595361 0.06903725 -0.041534502
0000f0 1f 6f 41 3d e5 50 34 bd 4c 4b 13 3e 12 e4 17 be
       0.047225114 -0.04402246 0.14384192 -0.14833096
000100 6a 55 02 be a6 49 18 be d4 85 1a 3e b2 33 0f 3d
       -0.12727895 -0.14871845 0.15090114 0.03496141
000110 43 45 29 3e ce 40 33 be cd 8c 6b be c3 da 48 be
       0.16530327 -0.1750519 -0.2300293 -0.19614701
000120 71 76 34 be 53 fa 4e 3d 57 01 5f 3d 1b 77 24 3e
       -0.17623307 0.050531697 0.054444637 0.1606106
000130 f1 7f e4 bd 84 db 15 be 93 22 c8 3d 3f 3e a1 bd
       -0.111572154 -0.1463452 0.097722195 -0.078732006
000140 7d a0 01 3e e7 0a 10 bd 26 8f f9 3d fb f1 16 be
       0.12658878 -0.035166647 0.121855065 -0.14740746
000150 39 21 ac bd 76 40 94 3d d4 11 81 3d b2 fe 0f bd
       -0.08404774 0.072388574 0.063022286 -0.035155006
000160 2c 3e 0d 3e f6 a9 24 3e e8 d0 11 be 0b 58 d1 bd
       0.13793248 0.1608046 -0.14239848 -0.10221871
000170 a4 07 3a 3e e7 94 86 bd 88 e2 7d bd b8 b8 4c be
       0.18166977 -0.065713696 -0.061983615 -0.1999234
000180 df 56 04 be c4 3f d8 3c e9 e0 25 bd b0 65 18 be
       -0.12923764 0.026397593 -0.040497694 -0.1488254
000190 7a 8e ef bc 31 73 25 be 3b e2 49 be a4 db 12 be
       -0.029242743 -0.16157223 -0.19715206 -0.14341599
0001a0 30 af 60 be 7e 2d 32 be d3 3c 22 3e 87 b4 87 bb
       -0.21941829 -0.17400166 0.15843515 -0.0041413936
0001b0 bd be a2 3c 1c c6 6b be b5 09 34 be 27 f0 de bd
       0.019866342 -0.23024791 -0.17581828 -0.10885649
0001c0 21 3a 41 bc 20 bc 5e be 8d 80 02 be d6 ba 23 be
       -0.011793644 -0.21751451 -0.1274435 -0.15989241
0001d0 5a 45 22 bd 48 9d eb bd 31 a3 63 bd 3b 7b 2c be
       -0.03961692 -0.115046084 -0.055575553 -0.16843884
0001e0 55 a5 25 be 65 72 18 be cb 5d db bd 0e 77 4a be
       -0.1617635 -0.14887388 -0.10711249 -0.19771978
0001f0 6d e3 1f 3e 5c 7f 52 bd 4e cb 15 3e ef ff 50 3d
       0.156141 -0.05139099 0.14628336 0.051025327
000200 b2 9a 17 be fc 87 5c 3e a6 a6 ae bd 28 cb dd bd
       -0.14805105 0.21536249 -0.085278794 -0.108297646
000210 9c 5e 32 be c0 cb 16 be b7 98 21 3e 53 9d 8a bd
       -0.17418903 -0.14726162 0.15780912 -0.067682885
000220 bf ae 66 3d 2d 1a 25 be 80 ca 55 3e ef 65 65 bd
       0.056318995 -0.16123267 0.20878029 -0.056005415
000230 fb a4 0d bd 62 1a 29 3d e3 ff f9 3d 74 a8 60 3e
       -0.034581166 0.041284926 0.1220701 0.2193926
000240 df f6 7b 3e a0 c0 21 be ca f9 55 3d 24 02 78 bd
       0.24605893 -0.15796137 0.05224017 -0.060548916
000250 78 55 fa 3c 0f ab d3 bd 07 f5 50 3e da da c7 bd
       0.030558333 -0.10335361 0.2040597 -0.097585395
000260 2b 8d 42 3e 04 d8 30 3e 00 2d 0e 3e 3c 72 cb bd
       0.18999164 0.17269903 0.13884354 -0.09933898
000270 3c 40 67 3e ec 13 13 3e 54 3b 16 3e 70 17 c7 bd
       0.22583097 0.14363068 0.1467107 -0.09721267
000280 38 c8 84 3d b7 e6 de bc 52 32 ca bc 4a fe 92 3e
       0.06483501 -0.027209623 -0.024682198 0.28709632
000290 dd 2e 0b 3e 32 51 23 be bc 49 fc bd f4 19 aa 3c
       0.13592096 -0.15948942 -0.12318751 0.020764329
0002a0 3d bb 4d 3e f2 f2 1f 3d 10 ab 24 be de 16 b8 bd
       0.20090957 0.03905005 -0.1608088 -0.089887366
0002b0 75 a2 0d be 91 34 fe 3d 00 e6 62 3e c4 71 47 be
       -0.13831504 0.1241237 0.2215805 -0.19476992
0002c0 97 97 d4 3d 06 51 62 3e 7d 2d 0b 3e 18 40 ec bc
       0.10380476 0.2210122 0.13591571 -0.028839156
0002d0 f9 cd 12 3e c2 66 53 3e 3a 1c 61 3e c8 a5 b1 3d
       0.14336385 0.20644668 0.21983424 0.086741984
0002e0 2a bb 8e 3c d4 81 c8 3d 24 85 88 3d e0 36 a4 3d
       0.017423231 0.09790388 0.066660196 0.08018279
0002f0 94 0f 9b 3e 66 86 98 3e d7 97 1f 3d 84 f9 1d 3c
       0.30285323 0.29790038 0.038963165 0.009642009
000300 32 48 df 3d cd 98 18 3e 1a b0 20 3e d3 e2 b7 3d
       0.10902442 0.14902039 0.15692177 0.0897881
000310 7b 7b 1e be 9f 7f 2f bb b8 44 8f 3e 9a 36 15 3e
       -0.15476792 -0.002677895 0.27982116 0.1457161
000320 9b 71 18 3d bf 67 bc bd a4 cd 11 be d6 34 70 be
       0.037217718 -0.091994755 -0.14238602 -0.23457655
000330 9a ed f7 bd 12 83 17 3e 55 23 52 3e 74 da c8 3d
       -0.12105866 0.14796093 0.2052129 0.098072916
000340 a8 c5 6c be aa d0 45 be 85 37 d6 3c 1e c7 99 3e
       -0.23122275 -0.1931788 0.02614952 0.30034727
000350 a7 87 d7 3d 61 17 7e bd f3 1f 38 3d 8e ea 85 bd
       0.105239205 -0.062034015 0.044952344 -0.065388784
000360 da 1b 0c bd 81 73 80 3e e3 42 31 bd 6e 96 d5 bc
       -0.03420625 0.25088122 -0.04327668 -0.026072707
000370 55 72 53 be ce 19 3f 3e 87 ed 7e 3e c1 ef 21 3e
       -0.20649083 0.18662187 0.24895297 0.15814115
000380 db fc be bd 00 fc 10 be 31 c1 d6 bd c3 01 6f 3e
       -0.09325572 -0.1415863 -0.10486067 0.23340516
000390 bf c4 62 3e ca b6 af 3e f0 ef fb 3d 55 29 6d 3d
       0.22145365 0.34319144 0.12301624 0.057900745
0003a0 49 4a 80 3c d5 c2 d7 bd f3 0b bc bd c2 b1 80 be
       0.015660422 -0.10535208 -0.09181967 -0.25135618
0003b0 84 39 3f 3c 20 65 09 be 58 99 6f bd b7 cc f8 bd
       0.011671428 -0.13417482 -0.05849585 -0.12148421
0003c0 b7 a6 00 be 98 20 59 be 4e 9f 26 be ce 88 ee 3c
       -0.12563597 -0.2120384 -0.16271707 0.029117968
0003d0 94 57 a3 bd 89 4c a2 3d 37 46 a5 bd 5e 64 1a be
       -0.079756886 0.07924754 -0.08070033 -0.1507735
0003e0 6a dc 38 bd a2 5a b4 bd
       -0.04513208 -0.08806349

conv1.bias f4 [10]
000000 66 95 de 3c c7 be f1 bd f2 bd 02 3e 3a a3 00 be
       0.027170848 -0.11803966 0.12767771 -0.12562266
000010 66 f3 40 3e b6 e1 b6 3d a3 ff 3d 3e 6d 26 7b bd
       0.18842849 0.0892977 0.18554549 -0.061315943
000020 d7 59 0a 3e 63 2f 85 bd
       0.13510834 -0.06503179

conv2.weight f4 [20, 10, 5, 5]
000000 f1 f1 cd 3c 30 07 7b 3d 2d 78 33 bc 0b bf ac bb
       0.02513978 0.06128615 -0.010953945 -0.0052717975
000010 05 1b b0 bc 25 36 57 bd c2 2a e8 3c 3b ea 85 bd
       -0.021497259 -0.05254187 0.028340701 -0.065388165
000020 70 83 08 3d 2c fb 18 3d ea 00 5c 3d 32 22 a1 bc
       0.033328474 0.03734891 0.05371181 -0.019669626
000030 20 9b 58 bd 89 54 40 3c 79 ac 01 3d 30 f7 83 bd
       -0.052882314 0.011738905 0.031658623 -0.06443632
000040 d0 48 6b bc 1c 7b 1b bd 4c 4f b7 bb 24 54 ff bc
       -0.014360622 -0.037959203 -0.0055941697 -0.031168051
000050 05 ff c0 bc ee 57 a7 bc 51 78 81 bd 64 b2 47 3d
       -0.023559103 -0.02042767 -0.06321777 0.04875411
000060 1d 99 41 3d 3b 7d 16 bc dd 1a 0b bc 37 a2 e6 bc
       0.04726516 -0.009185131 -0.008490291 -0.028153522
000070 11 87 81 bd 26 5d 90 bd 7e 73 c2 3c ce f8 0d bd
       -0.0632459 -0.07049017 0.023736712 -0.034661107
000080 45 fa 28 bd ca 1d 11 bc 77 57 e7 bc 60 ef a8 bc
       -0.0412543 -0.0088572 -0.028239949 -0.020621955
000090 43 0f 97 3b 63 53 5c bc 49 8e b9 bc 81 aa 00 bd
       0.0046099736 -0.013447615 -0.022650855 -0.031412605
0000a0 a1 67 3f bd 08 b4 69 3d dd a4 d1 bc 20 d0 7c 3c
       -0.046729688 0.057056457 -0.025591308 0.01543048
0000b0 a1 43 c7 bc dc 8f 1b 3c ad 63 78 3d f6 56 ce 3c
       -0.02432424 0.009494748 0.060641933 0.02518795
0000c0 bf 41 79 bd 19 db 8e 3c 38 ca 73 3d a7 ab 86 3c
       -0.060853716 0.017438458 0.059519023 0.016439272
0000d0 f2 2a 27 3d 7a ab 74 3d fe 34 4f bc a7 16 29 3c
       0.04081244 0.059733845 -0.012646912 0.010320342
0000e0 ac 71 37 bd 4b 4b 6b bc 10 08 35 3d 5d 40 ec 3c
       -0.04478614 -0.014361213 0.044197142 0.028839285
0000f0 03 74 30 bd 6d 35 5e bd 0b 1c 36 bd df 18 84 bd
       -0.043079387 -0.05425017 -0.044460338 -0.06450056
000100 76 a2 54 bd 27 5c 90 bc e6 a9 27 3d e6 60 0d 3c
       -0.051912747 -0.017622067 0.040933512 0.008629059
000110 24 2a 48 bd 19 53 53 bd cc a1 fe 3c 91 33 3b bd
       -0.048868313 -0.05159292 0.03108301 -0.045703474
000120 a9 a1 10 bc 77 e1 ee 3c a5 4d ff bc b9 79 07 bc
       -0.008827605 0.029160244 -0.031164953 -0.008268767
000130 b1 b6 a3 bb ae 91 71 bc 40 96 05 bd 20 9f 6d bd
       -0.0049961437 -0.014744205 -0.032613993 -0.05801308
000140 e7 67 57 bd 08 59 0b bd 24 d5 77 3d 27 60 00 bd
       -0.052589323 -0.034020454 0.060506 -0.031341698
000150 b1 a5 30 bd 3a 9d 60 3c 8b 93 6c 3c 22 d2 07 3d
       -0.043126766 0.013709361 0.014439474 0.033159383
000160 99 80 43 3d 52 0f 0f 3d 94 96 7e bd 12 00 90 3b
       0.047730062 0.03492672 -0.06215532 0.0043945396
000170 a6 95 12 3d 75 75 c3 bb 72 1a 19 bd 49 26 79 3d
       0.035787247 -0.0059649297 -0.037378736 0.060827527
000180 4b 60 c1 bc 21 d1 1f bd d3 65 73 bd c5 b9 04 3b
       -0.023605486 -0.0390178 -0.05942328 0.0020252329
000190 08 e0 ca 3c 4c 1b 26 3c fb d8 20 3c 93 50 4a bd
       0.02476503 0.010138344 0.009817357 -0.049393248
0001a0 c3 1b 74 bd 03 49 f4 ba a7 e1 61 3d 94 29 05 3d
       -0.05959679 -0.0018637482 0.05514684 0.032510355
0001b0 f8 b1 1f bd 4b b9 1e bc 48 fa 49 bd fe 09 09 bd
       -0.038988084 -0.009687732 -0.049310952 -0.033456795
0001c0 4f 7e e7 3b d5 af f9 3c 0a 6c 46 3d b4 be 78 bd
       0.0070646177 0.030479351 0.048442878 -0.060728744
0001d0 84 f9 1f 3d f0 8e 44 bd 7a 16 a8 3c 54 dc 4e 3d
       0.039056316 -0.04798788 0.02051853 0.05050309
0001e0 4c f2 91 ba da 44 64 3d 97 10 64 bd 9c a1 ce bc
       -0.0011134832 0.055729724 -0.055679884 -0.025223546
0001f0 d7 cc 13 3d a0 78 82 bc 9d 7d 77 bc 2e d0 e8 bc
       0.036084022 -0.01592666 -0.015105632 -0.02841958
000200 41 75 22 3d 41 79 d6 3c 62 ce 91 3c 9f 5c 13 bd
       0.039662603 0.026180865 0.017798606 -0.035977002
000210 43 25 57 bd 25 03 8e 3b a7 0c 89 3c 1b f6 ec bc
       -0.05252577 0.004333871 0.016729666 -0.028925946
000220 0a 4e 93 bc af 3d 2d 3d bc c4 74 3b b9 c9 73 3a
       -0.017981548 0.042295154 0.0037348708 0.00092997734
000230 ba 02 87 bc b1 21 6f bd 2f f5 76 bd 84 43 01 bd
       -0.016480792 -0.05838174 -0.06029242 -0.03155853
000240 31 f6 0e bd 62 98 8b 3c fa a0 a0 bc 91 62 db bc
       -0.034902755 0.017040435 -0.01960801 -0.026780399
000250 be 54 69 3d 69 e1 95 3c 1f bf 38 3d 8b c0 00 bd
       0.056965582 0.01829596 0.045104142 -0.031433623
000260 23 0a df bc c4 b6 91 3c 80 7d 49 bd 04 9e 2f bd
       -0.027226513 0.017787345 -0.04919195 -0.042875305
000270 ea a3 fb ba 6b a6 bf bc 73 bf 4d bd 98 21 01 3d
       -0.001919863 -0.023394784 -0.05023141 0.031526178
000280 a3 9d 44 3d 0c 7a 1c 3c 69 88 32 bc 28 69 76 bd
       0.048001897 0.009550583 -0.0108967805 -0.06015888
000290 4f 16 d4 bc 26 41 8a 3c 0c 34 00 3d 6f 01 17 bc
       -0.025889544 0.016876768 0.031299636 -0.00921665
0002a0 2d 16 da bc 07 f3 07 3d c1 e7 3c bd 6a 62 32 3d
       -0.026621902 0.033190753 -0.046119455 0.043550886
0002b0 e7 83 dd bc 12 12 4a bb 6d 7e 8b bc 24 5e 1e 3c
       -0.027040435 -0.0030833525 -0.017028058 0.009666
0002c0 7f e6 9a bc e0 0c 36 3d 2c 6a cc bb db 31 2c 3d
       -0.018908737 0.044445872 -0.0062382426 0.042039733
0002d0 ea 25 7e 3d db 9e f0 bc fa 42 42 bd 01 65 48 3d
       0.062047876 -0.029372623 -0.047427155 0.04892445
0002e0 d2 e2 36 3d 72 68 43 bd f4 d4 ee ba 06 8a 7b bd
       0.044649906 -0.04770703 -0.0018221424 -0.061410926
0002f0 5d ca 55 bd 6e 63 38 3c ff 6a a5 3c df 95 90 3c
       -0.05219494 0.011254175 0.020192621 0.01764959
000300 0b 38 85 bc 46 75 68 3d f6 35 ba 3b 65 8c 11 bd
       -0.016262075 0.056752466 0.005682702 -0.03553428
000310 7f 57 c2 ba ae c9 56 3c a1 d6 90 3c b3 f4 4d bd
       -0.0014827101 0.013109608 0.017680468 -0.05028219
000320 4d d2 b0 3c 14 dd 01 bd 58 39 59 bd ae 8c 10 bd
       0.021584654 -0.031704977 -0.053033203 -0.035290413
000330 f4 32 6e 3d 3f 1b 53 3d 20 18 66 3d 08 18 1b 3d
       0.05815406 0.051539656 0.05617535 0.037864715
000340 d3 81 3f 3d 9d 8c 14 bc 45 ff 18 bd 22 9a e8 3c
       0.04675467 -0.009066728 -0.03735282 0.028393809
000350 b2 f1 05 bd 84 e4 31 bd eb 37 af bc c5 9e 3a 3c
       -0.0327012 -0.04343082 -0.021388968 0.011390393
000360 ec 36 03 3d 64 fc d8 bc b1 7a 20 bd 2f 5d b7 3b
       0.0320348 -0.026487537 -0.039179508 0.005595825
000370 3b 57 2e bd 54 f4 1f bd 0e e4 02 3d c5 44 6b bc
       -0.04256366 -0.03905137 0.03195577 -0.014359658
000380 99 7c 5f 3d 91 5f 77 3d e2 65 8d 3c f2 11 a3 3c
       0.054562185 0.060393874 0.017260496 0.019906018
000390 d9 32 56 3c 53 82 c6 37 65 c3 bc bb 38 08 70 ba
       0.013073646 2.3664126e-05 -0.0057605975 -0.0009156498
0003a0 5d d2 a9 3c 0d b1 62 3d 3f 6d aa bc c9 9b f0 bc
       0.020730192 0.05534463 -0.020804046 -0.02937116
0003b0 19 11 8a bc 50 f3 05 bd 0a 43 e6 3b 84 da 30 3d
       -0.016853856 -0.032702744 0.0070270346 0.043177143
0003c0 0a e8 3c 3d a5 d3 e6 3c 1a c4 41 bd b9 cb 0f bd
       0.046119727 0.028177092 -0.047306158 -0.035106394
0003d0 ad 26 71 bc e7 63 44 bc 65 77 a0 3b a3 c4 6e bd
       -0.014718694 -0.011986709 0.0048970454 -0.058292996
0003e0 a0 07 9f 3c f9 d4 49 bd bc ae 19 bd ac cb 87 bd
       0.019412816 -0.049275372 -0.037520155 -0.06630644
0003f0 59 b4 05 3d 23 44 98 bd 10 25 5b 3d e6 f7 4e bc
       0.032642696 -0.07434871 0.053502142 -0.012632346

conv2.bias f4 [20]
000000 41 58 59 bd 36 b0 94 3c 3b 3a 68 3d d7 41 54 bd
       -0.05306268 0.01815043 0.056696158 -0.051820602
000010 75 fa 8e ba e5 f0 54 bd 2a 50 12 3d 81 16 22 3d
       -0.0010908382 -0.051987547 0.03572098 0.039572243
000020 06 62 8a bc 0d 58 0e bd 96 04 25 3d 55 ef 0f bd
       -0.016892444 -0.03475194 0.040287577 -0.035140354
000030 f3 da 9a bc 3c 09 6f bd d2 d7 32 3d ba 52 3a 3c
       -0.018903231 -0.058358416 0.043662854 0.011372263
000040 ab ec bd bc 64 56 64 3d 09 0f 78 3d 0a a8 80 3c
       -0.023184141 0.05574645 0.060561214 0.015705127

fc1.weight f4 [50, 320]
000000 ac f5 23 bd 06 cd 48 bc 4b 69 2f 3d 57 f8 21 3d
       -0.040029213 -0.012255913 0.042825025 0.039543476
000010 a1 40 9e bc 3a bd 16 3d cc 82 14 bd 87 f9 83 3c
       -0.019317927 0.036801554 -0.03625755 0.016110195
000020 72 ff 4b 3d 17 b2 22 3c d1 62 31 bd e1 4a a2 3c
       0.04980416 0.009930155 -0.04330713 0.019811096
000030 29 24 00 3d 92 6c 20 3d ab cb 13 bd be f6 bc bb
       0.031284485 0.03916604 -0.036082905 -0.0057667186
000040 ca a7 b2 3b 73 bb c5 3b c8 9c 57 3c 10 7b a2 bc
       0.005452131 0.0060343086 0.013159938 -0.019834071
000050 11 24 e2 3c df 26 49 3d 21 6a 69 3b 7d a9 7c 3d
       0.027605088 0.049109336 0.0035616236 0.061685074
000060 de 6c 1b 3c c0 00 fb 3c 8e 1e 06 3c 4f 79 68 bb
       0.009486405 0.030640006 0.008185996 -0.0035472696
000070 1d e5 bb bc 01 fc 63 bc b4 04 fe 3c 08 a3 9b bc
       -0.022936398 -0.013915063 0.031008102 -0.018998638
000080 c9 40 40 bc 5e 4c 8c bd 17 1b 53 bd f4 65 2e 3c
       -0.011734196 -0.068505034 -0.051539507 0.010644425
000090 9f 07 4c 3d b6 fd 60 bd 8e cd 98 bc 59 ca 9b 3c
       0.049811956 -0.054929458 -0.018652704 0.019017385
0000a0 a3 61 4d bd 02 cb d8 3b a6 4d ea 3b b5 6e 5d bd
       -0.05014194 0.0066159973 0.0071503697 -0.054060657
0000b0 45 d0 a7 b9 91 c4 4a bd 30 d7 1a bc 91 7a 17 bd
       -0.00032007895 -0.049503867 -0.009450719 -0.036982123
0000c0 bb eb 67 3d 29 c8 d2 bc 20 f8 d5 3c 96 bf c6 bc
       0.056621294 -0.02573021 0.026119292 -0.024261277
0000d0 36 71 7d bd 71 7d d2 3c 13 b5 de 3c 1b 2c 7f 3a
       -0.061875544 0.02569458 0.027185952 0.000973405
0000e0 a1 57 46 bd 4a b7 ec bc 70 17 31 bd f8 ec 52 3c
       -0.048423413 -0.028895993 -0.043235242 0.012873881
0000f0 2b 8c e9 3c ed 38 63 3d ca 2b af 3d b0 1c ea bc
       0.02850922 0.05547421 0.08553274 -0.028578132
000100 5b 1c 29 3d ae b5 69 3d 6b 15 85 3c 15 d3 42 bd
       0.041286808 0.05705803 0.016245564 -0.047564585
000110 da d3 ea bc 55 3c 4c 3d 67 4e 43 3d 64 27 54 3d
       -0.028665472 0.049862225 0.047682192 0.05179538
000120 46 63 b8 3c 62 f1 a1 bc f6 74 11 bd 37 68 da bc
       0.022508275 -0.01976842 -0.035511933 -0.026661022
000130 16 67 5d 3c 64 7e 47 3c 20 b1 81 3c 0e c4 3a bd
       0.013513347 0.01217613 0.01583153 -0.04559713
000140 83 5f 5c 3b 2d 29 32 3d 16 7f 68 bd 38 b6 08 bd
       0.0033626265 0.0434963 -0.056761824 -0.033376902
000150 56 5c ea bc ae 2b d0 3c d2 d1 7e 3d b2 99 30 3d
       -0.028608482 0.025411453 0.06221182 0.043115325
000160 79 41 5f 3d 85 14 4a 3d ac 3a 5b 3d b4 5a b3 bc
       0.0545058 0.049335975 0.05352275 -0.021893837
000170 3d 6d e3 bc b2 ea 9a b9 33 9b 96 ba 2d 1a b6 bc
       -0.02776205 -0.0002954803 -0.0011490345 -0.022229278
000180 41 74 58 3d cb 1e f8 3c 9c f1 e1 bc 90 bc fe bc
       0.052845243 0.03028812 -0.027581029 -0.031095773
000190 9f 7b 86 3c 46 47 66 bc cf 8f d5 3c 24 26 ec 3b
       0.016416369 -0.014055079 0.02606955 0.007206695
0001a0 57 69 91 3c b3 73 f9 3b e6 bd 49 3d 66 7b 2b 3d
       0.017750425 0.0076126694 0.049253367 0.04186573
0001b0 50 6d ab bc 5a 2b 65 bd 5a 80 34 3d 9b 9a 07 3c
       -0.020926148 -0.055949546 0.044067718 0.008276607
0001c0 26 d8 51 bd a6 d7 83 bc f8 ab 1e 3d 66 7c 09 bc
       -0.051231526 -0.01609404 0.03873822 -0.008391475
0001d0 93 71 b9 bc 2d 81 78 3b bb 98 af 3c 55 6f ad bc
       -0.022637164 0.0037918792 0.021435132 -0.021171251
0001e0 23 52 11 bd 6d 84 aa bc e3 04 40 bc fa 43 00 3c
       -0.035478722 -0.020815099 -0.011719915 0.007828707
0001f0 a3 01 91 bc c6 c0 7b 3d 7a e7 0e bb cd 9d 62 bd
       -0.017700976 0.06146314 -0.0021805451 -0.05532627
000200 e6 f3 3b 3d 17 31 27 3c 72 98 4a 3d 9b 2b cb bb
       0.045886897 0.010204575 0.04946179 -0.0062002665
000210 71 f1 28 bc d4 12 5b bd 55 12 80 bd c4 e8 11 bb
       -0.01031147 -0.053484753 -0.062534966 -0.0022263983
000220 d0 57 06 3d 4b 66 4d bd 20 91 0d bc f1 c2 1e bd
       0.03279859 -0.050146382 -0.0086405575 -0.03876013
000230 27 09 45 bd 08 a8 0d bd 7c 4b 09 bd 63 6f 2e bd
       -0.04810443 -0.034584075 -0.033519253 -0.042586695
000240 66 21 b7 bc ce 62 e6 bb bd 1a 1e 3d c8 d5 0d 3d
       -0.022354793 -0.0070308214 0.03859972 0.034627706
000250 95 dd 35 ba 02 24 fa bb 16 b6 be 39 18 18 c9 bc
       -0.00069376203 -0.007633687 0.0003637529 -0.024547622
000260 09 5d 36 3d 08 d7 73 3d 53 91 24 bd 82 af 4a bd
       0.04452232 0.05953124 -0.040177654 -0.049483784
000270 85 04 09 bd be ff 42 bb 70 c1 7d bc 78 ef 38 bd
       -0.033451576 -0.0029754485 -0.015488014 -0.04515025
000280 08 02 1f 3d 5d 96 08 3c c7 43 f2 bc 80 19 48 bd
       0.038820297 0.008336631 -0.029573334 -0.048852444
000290 34 21 8c 3d 2e f2 80 3d 87 bf 3a 3b 74 19 b2 bc
       0.068422705 0.06296192 0.0028495507 -0.021740653
0002a0 bc f4 3a 3d 6e 35 4b 3d b0 ed c6 3b 9c d3 67 3d
       0.045643553 0.0496115 0.006070815 0.05659829
0002b0 d5 72 42 bd 1a 1d d3 bc 14 9b 2f 3d c6 fc 0e bd
       -0.047472794 -0.025770713 0.042872503 -0.034909032
0002c0 87 a2 db bc 4c cf 25 b9 22 c5 70 bc 07 0e 92 3d
       -0.026810898 -0.0001581285 -0.014695438 0.07131582
0002d0 59 6b 21 3d 04 21 c8 bc ee e4 0b bd 3c 37 8f 3c
       0.039409015 -0.024429806 -0.03415387 0.017482392
0002e0 0b 94 71 bc 6e ef 00 bd d6 d2 6b bd f9 7a 19 3d
       -0.014744769 -0.031478338 -0.057574116 0.03747079
0002f0 db 99 4c 3d 4f 45 59 3c 14 c4 d2 bc c5 4c 79 bd
       0.049951416 0.013261153 -0.025728263 -0.06086423
000300 62 14 75 bb 55 7b ad 3c 06 11 84 bc 25 c0 34 3d
       -0.0037396182 0.021176973 -0.016121399 0.044128556
000310 2f aa 50 3c 1d 0f 3d bb 92 54 b3 3c 16 c8 e4 3c
       0.012735887 -0.002884812 0.021890912 0.02792744
000320 d0 f0 27 bd 16 68 8c 3c c3 84 4f bd ca d8 59 bc
       -0.04100114 0.017139476 -0.05066372 -0.013296315
000330 d0 ec 93 bc 34 9d 2f 3d 1c 5f 5b bd 50 6d a4 3c
       -0.018057257 0.04287453 -0.0535575 0.020071656
000340 be a7 46 bd cb 4c cb 3c b6 03 60 3c 49 a8 b5 bc
       -0.048499815 0.024816891 0.01367276 -0.022174971
000350 e4 6a 88 3c 1e f8 5b 3d 42 a2 0a 3d c9 a8 51 bd
       0.016652532 0.05370342 0.033846147 -0.051186357
000360 ae 35 80 bc c8 33 4e 3d 5f d0 0c 3c 23 53 e1 3b
       -0.015650596 0.05034235 0.008594601 0.0068763657
000370 9f d9 90 3b 97 b1 a1 bc 2d 8a 6d bc 20 db 7c 3b
       0.0044204737 -0.019738002 -0.014498276 0.0038582757
000380 a9 ae c6 3c 12 49 32 3a cf 9d 8a 3c 70 9d c2 3c
       0.024253206 0.00068010495 0.016920952 0.023756713
000390 c1 15 96 bc 37 6b 65 3d 18 ec a1 3d 58 b2 2e 3d
       -0.01832092 0.05601045 0.079063594 0.04265055
0003a0 b9 15 34 bd 19 20 fe 3c 69 62 2b 3d 1f 24 0d 3c
       -0.04396603 0.031021165 0.041841898 0.008614569
0003b0 ac 61 bc 3c 56 85 09 bd 8d 48 85 bd 69 d2 ea bc
       0.022995792 -0.033574425 -0.065079786 -0.028664785
0003c0 b1 13 38 bb c4 b1 55 3d f3 1f d2 3b d4 b4 09 bc
       -0.002808791 0.052171484 0.0064125 -0.008404929
0003d0 58 32 3a 3b 1b fe 9f 3c 56 59 07 bd b9 de 4d bc
       0.0028411355 0.019530347 -0.03304418 -0.012565308
0003e0 8d f4 ee 3c 4b 9c 51 3d 2f 0b 67 3d 3e 4a 21 3d
       0.029169345 0.051174443 0.05640715 0.039377443
0003f0 4d 27 8c bc 38 4d 54 3d cc 4e 60 3d d5 35 ae bb
       -0.017108584 0.051831454 0.054762647 -0.005316476

fc1.bias f4 [50]
000000 c5 35 5b 3c 3a 7a 73 3c 03 8f 49 3d 5b 96 66 bc
       0.013379519 0.014860684 0.049208652 -0.0140739335
000010 ab c9 69 3d 2e d2 b1 3b f4 f5 5a 3d c2 20 62 bd
       0.05707709 0.0054266667 0.053457215 -0.05520702
000020 2c 3b cd bc 3e 39 a4 bc ea 9e 5e bd 5d d0 c5 ba
       -0.02505263 -0.020046826 -0.05435077 -0.0015092004
000030 e1 a5 3d bd e9 f0 ed 3c 6b 46 6d 3d fc f6 be bb
       -0.046300773 0.029045539 0.057928484 -0.0058277827
000040 ed a0 f6 3c b2 dc 08 3d d1 00 b5 3c e1 b1 6f 3c
       0.030106032 0.033413596 0.022095116 0.014629812
000050 6f fe 17 bd e9 89 4b bd 34 fe 9c 3c 41 b1 27 bd
       -0.03710788 -0.04969207 0.019164182 -0.040940527
000060 87 4e 44 3d 77 b7 39 3c 84 fb b8 bc eb 17 d1 bc
       0.047926452 0.011335245 -0.02258087 -0.0255241
000070 a0 5a 30 3c 6f f0 4a bb 0b b0 50 3d 97 d2 be bc
       0.010763794 -0.0030966063 0.050949138 -0.023293776
000080 cc 84 00 bd 45 95 72 bd 1b c9 3f 3c 0a 69 14 bd
       -0.031376645 -0.059224386 0.011705662 -0.036232986
000090 82 c2 05 bc ec aa 68 3d f2 42 ae bc 74 c2 67 3d
       -0.00816405 0.05680363 -0.021272156 0.05658193
0000a0 9f e8 1d 3d 9f 1b 01 bd b9 b8 ed 3c be ce 81 bc
       0.038551923 -0.031520482 0.029018747 -0.015845653
0000b0 c1 30 27 3d 3c 7f 18 bd 93 ce aa 3c 99 7a 1e 3d
       0.04081798 -0.037230715 0.020850455 0.038691137
0000c0 2c 78 20 3d 7a 0b 93 bc
       0.039177105 -0.017949808

fc2.weight f4 [10, 50]
000000 dc 7e 0e 3e 0e 16 73 3d 95 93 19 bd 8a a3 a2 3d
       0.1391558 0.059347205 -0.03749426 0.07941349
000010 de 33 08 bd f1 c7 c5 bd 3e 18 dd 3d fb d8 1c 3d
       -0.03325259 -0.096572764 0.107956395 0.038292866
000020 69 91 43 be 39 ae 2d be eb 4d 47 3b 7d a7 1d 3e
       -0.19098438 -0.16960992 0.0030411433 0.15395923
000030 cf 8c a5 bc f2 8e 1a be e6 87 b7 3c 1d 47 5b 3d
       -0.020208744 -0.15093592 0.022403669 0.053534616
000040 5e ab b8 3c fa 02 14 3e 59 9e 0e be 09 35 52 ba
       0.022542652 0.1445426 -0.13927592 -0.0008018767
000050 98 84 b9 bd a2 83 81 bd af 50 f8 bd 69 fb fa bc
       -0.090584934 -0.06323935 -0.12124764 -0.03063746
000060 37 2e 2a be 54 90 06 be 09 2e e0 3d 6d 56 1f 3e
       -0.16619192 -0.13140994 0.109462805 0.15560313
000070 f5 b9 59 bd d6 70 0d bd 8f 55 4b bd a5 ab 09 3d
       -0.053155858 -0.034531437 -0.049642142 0.03361096
000080 2d bd 97 bd a1 e9 0c 3e f0 06 c0 bb 7a 05 76 bc
       -0.07409129 0.13760997 -0.005860202 -0.015015954
000090 d7 75 1a be e1 9c 3f be 12 da 2b 3d d0 d8 37 3e
       -0.15084015 -0.18712188 0.041956015 0.17953801
0000a0 dd 39 bb bd ed 89 98 3d f1 96 3d bc 95 12 0c 3e
       -0.09141896 0.07448182 -0.011571632 0.13678963
0000b0 fb 00 c7 bd fb 00 f3 3d 47 d9 97 3d e1 e2 1e 3e
       -0.09716984 0.118654214 0.07414489 0.15516235
0000c0 2f fd 3c 3b f3 db 38 3e 0b eb 12 bd 12 6f 49 bd
       0.0028837433 0.18052654 -0.035868686 -0.04917819
0000d0 c0 54 c3 bc e3 b3 68 3d 86 7d 3d 3e 14 b7 27 3e
       -0.023844123 0.05681218 0.18504915 0.16378433
0000e0 dc 36 a5 bd 96 6b 74 bd 43 91 8d 3d 2f 64 fc bd
       -0.08067104 -0.059672914 0.06912472 -0.12323796
0000f0 1c 1d 9f bd d7 ee a8 bb c2 f2 0c be 4c 26 6b be
       -0.07769224 -0.005155425 -0.1376448 -0.22963828
000100 30 eb 28 3e 4e ce 19 be 73 62 aa bd cf bc 65 3d
       0.16495967 -0.15020105 -0.08319559 0.056088265
000110 e9 43 aa bc 69 2a 15 3d 16 2f b1 bc 1c 91 8f 39
       -0.020784335 0.0364174 -0.021628898 0.000273832
000120 e0 34 d6 3d 9d ca 23 3d 31 20 69 3d df 70 99 bc
       0.10459304 0.03998815 0.056915466 -0.018730579
000130 7a 2f 04 3e 5e ef 08 be d9 4c 13 bd 9e 6e d3 3c
       0.12908736 -0.13372561 -0.03596196 0.025809582
000140 88 c9 e6 3d 80 64 3d bd 73 66 a1 bb 5a 3c 73 be
       0.11268908 -0.046238422 -0.004925543 -0.23753491
000150 5d dd 55 3d 4d 1f 2f 3e 4a e6 1f be b9 f7 1a be
       0.05221306 0.17101784 -0.15615192 -0.15133561
000160 27 fb 08 bd 60 a0 d0 3d d0 43 d4 3d 7a a9 24 3e
       -0.033442643 0.10186839 0.10364497 0.16080275
000170 a5 40 eb bd 26 15 30 3e 97 32 8e 3e e2 d9 e5 bd
       -0.11486939 0.17195567 0.27772972 -0.112231985
000180 e3 6b 96 3c 74 77 a7 bd 99 87 0d 3e 2f df 0a be
       0.018361991 -0.08177081 0.13821258 -0.135617
000190 69 51 27 be 04 6c bd bd 6b 5b cc 3d 2b 27 62 3c
       -0.1633965 -0.09249118 0.09978374 0.013803284
0001a0 12 d7 3e be f3 4f ef bd e2 c8 55 3e 8d c5 98 bd
       -0.1863673 -0.11685171 0.20877412 -0.07459555
0001b0 0f 4a af bd 5b 65 86 bc b0 8b d5 bb a7 ad 03 be
       -0.085590474 -0.016405752 -0.006516896 -0.12859212
0001c0 79 8d bc bd 1e 34 5a 3d 6a 2d db 3c 40 df 42 3e
       -0.09206671 0.05327236 0.026755054 0.19030476
0001d0 e2 bf 08 be 9c dd dc 3c 4d 41 2d bd 92 8b c9 bd
       -0.13354447 0.02696114 -0.042298604 -0.09841074
0001e0 bf a1 42 3d 4f 90 8b bd 34 97 13 bb c5 ab d8 bd
       0.047517534 -0.06814634 -0.0022520544 -0.105796374
0001f0 eb b0 d8 bd 30 d4 ef 3b 8a 49 de bd c0 a8 47 3d
       -0.105806194 0.007318996 -0.1085387 0.048744917
000200 38 82 af bd 97 da 64 3d 9d d4 bf 3d 4d 95 ae bd
       -0.08569759 0.055872526 0.09366725 -0.085245706
000210 55 99 be bd 18 06 16 3d e2 1a 39 bd a9 0c 16 bd
       -0.093065895 0.036626905 -0.045191653 -0.036633167
000220 f4 30 0a 3e f7 11 5b 3d 4d aa 00 3d 8c fd 91 3b
       0.13495237 0.05348393 0.03141241 0.004455274
000230 c9 25 26 3d 4d 80 d4 bd 51 60 7f 3c c6 1b 29 3e
       0.04056338 -0.10376034 0.015586928 0.16514501
000240 3f ff a1 3e a6 32 d6 3d 4d 6c 99 3a 43 db 91 3d
       0.3164005 0.10458879 0.001170525 0.07121899
000250 85 5e 03 3e e6 a1 98 bc 30 9c 84 3d 3f 6b 47 bd
       0.12829025 -0.018631887 0.06475103 -0.048686262
000260 12 2e b8 3d 02 6d 05 be 4a 7f 9e bd 08 58 43 be
       0.08993162 -0.13029864 -0.07739122 -0.1907655
000270 a4 e3 89 bd 30 d0 81 3d 7d 2a e1 3b ad 85 65 3e
       -0.06732872 0.06338537 0.00687152 0.22414275
000280 7f a0 25 be 3f e3 b7 3d 84 84 8c bd 45 31 8e 3e
       -0.16174506 0.08978891 -0.06861213 0.27771965
000290 80 24 a6 3d d0 c6 24 3e 98 88 be bd a3 c5 e0 3d
       0.081124306 0.16091466 -0.09303397 0.10975196
0002a0 13 72 b6 bd 1d 85 f9 bd a6 7f c4 3d e9 8e f0 b7
       -0.08908477 -0.121835925 0.095946595 -2.8676777e-05
0002b0 74 69 21 3e 00 c3 f0 3d 7c e0 0f bd 55 d0 18 3d
       0.15762883 0.11755943 -0.035126194 0.037308056
0002c0 3b 5b 08 bb a9 30 ff 3d 02 98 93 3d 35 b6 02 3d
       -0.002080633 0.12460453 0.072067276 0.031912047
0002d0 de 5c ee bd a7 07 1b 3d 0e 1b 48 3d c3 0d 05 bd
       -0.11638807 0.037849095 0.048853926 -0.032483827
0002e0 93 54 3f bd 8f cc ea 3c 5b 07 ae bd f1 c2 92 bd
       -0.046711516 0.028661994 -0.08497497 -0.07166088
0002f0 9f 23 73 bd d8 d1 24 be a1 1e c3 bd 56 fd 0f bd
       -0.059360143 -0.16095674 -0.095273264 -0.03515371
000300 ac 46 f4 bd c2 89 4d 3d cb 02 0c 3e e5 28 59 3d
       -0.11927542 0.050180204 0.1367294 0.053017516
000310 6f 39 6c 3c 0d 93 13 be 6e 47 c2 bc 0a eb 42 be
       0.01441799 -0.14411564 -0.023715701 -0.19034973
000320 4b 3f 4d bd ce c3 1c 3e ab 04 2f 3b 95 e1 54 3c
       -0.05010919 0.15309069 0.0026705663 0.012993236
000330 a8 20 6b 3e e7 5c db 3d ba cf 8a 3d ff 16 e5 3d
       0.22961676 0.10711079 0.06777902 0.11186027
000340 2f 62 1f 3e 94 6c 96 3c 2a c3 5a be 75 6f 7b bd
       0.15564798 0.018362321 -0.21363512 -0.06138559
000350 0d 77 00 3e 30 52 a5 bd 8b e8 d5 3d af 1a eb bd
       0.12545414 -0.08072317 0.10444745 -0.11479699
000360 89 c8 9a bb 16 16 2b 3e 8e db 03 be 23 89 66 3d
       -0.0047236127 0.16707644 -0.12876722 0.056283128
000370 a7 1b 76 3d 84 6a 0a be c0 73 f4 bd 42 2c 70 bd
       0.060084965 -0.13517195 -0.1193614 -0.058635958
000380 9b bc 14 3e 46 02 ac bc ab 9d 05 bd 10 b2 0d 3d
       0.14525072 -0.020997178 -0.032621067 0.03459364
000390 5e 65 fe 3c 48 55 51 bd ee af bb 3d d0 4f 6c bd
       0.031054195 -0.05110672 0.09164415 -0.057693303
0003a0 18 b2 3a 3e d0 82 0c be e8 2f 7a 3e ba 20 96 bd
       0.18232 -0.13721776 0.24432337 -0.07330461
0003b0 ca 20 81 3d 30 6f 34 3e eb da 80 bd fa 49 2b 3b
       0.06305082 0.1762054 -0.06291755 0.0026136623
0003c0 a1 4b 47 bd ae 46 5c 3d be cc 4b bd b6 af d0 3d
       -0.04865611 0.053778343 -0.049755804 0.10189764
0003d0 93 98 57 be ac 5c 4b bd 44 98 8c bd 01 eb 1b 3e
       -0.21054296 -0.049648926 -0.0686498 0.15226366
0003e0 d4 3b 97 3d 09 c6 2e bd 24 ee 01 3e 62 31 2f be
       0.07384458 -0.04266933 0.126885 -0.17108682
0003f0 d4 9e 2a bc ab 33 4e 3e 50 57 75 bd 8a 0e 18 be
       -0.010413844 0.20136897 -0.05989772 -0.14849296

fc2.bias f4 [10]
000000 7c d6 82 3d d8 21 15 3e 82 39 24 3e 24 48 1d 3b
       0.06388566 0.14563692 0.16037562 0.0023999298
000010 57 94 33 bd 50 a8 ef bd 63 82 31 3c 31 3a de 3c
       -0.04384264 -0.11702025 0.010834309 0.027127357
000020 a1 f1 b7 bd 73 15 33 3d
       -0.08981634 0.043721627
